…
 hl-ipython3'><pre><span></span><span class='n'>model</span><span class='o'>.</span><span class='n'>summary</span><span class='p'>()</span></pre></div>    </div></div></div><div class='output_wrapper'><div class='output'><div class='output_area'>    <div class='prompt'></div><div class='output_subarea output_stream output_stdout output_text'><pre>Model: &#34;sequential&#34;_________________________________________________________________Layer (type)                 Output Shape              Param #   =================================================================flatten (Flatten)            (None, 784)               0         _________________________________________________________________dense (Dense)                (None, 100)               78500     _________________________________________________________________dense_1 (Dense)              (None, 100)               10100     _________________________________________________________________dense_2 (Dense)              (None, 100)               10100     _________________________________________________________________dense_3 (Dense)              (None, 100)               10100     _________________________________________________________________dense_4 (Dense)              (None, 100)               10100     _________________________________________________________________dense_5 (Dense)              (None, 100)               10100     _________________________________________________________________dense_6 (Dense)              (None, 100)               10100     _________________________________________________________________dense_7 (Dense)              (None, 100)               10100     _________________________________________________________________dense_8 (Dense)              (None, 100)               10100     _________________________________________________________________dense_9 (Dense)              (None, 100)               10100     _________________________________________________________________dense_10 (Dense)             (None, 100)               10100     _________________________________________________________________dense_11 (Dense)             (None, 100)               10100     _________________________________________________________________dense_12 (Dense)             (None, 100)               10100     _________________________________________________________________dense_13 (Dense)             (None, 100)               10100     _________________________________________________________________dense_14 (Dense)             (None, 100)               10100     _________________________________________________________________dense_15 (Dense)             (None, 100)               10100     _________________________________________________________________dense_16 (Dense)             (None, 100)               10100     _________________________________________________________________dense_17 (Dense)             (None, 100)               10100     _________________________________________________________________dense_18 (Dense)             (None, 100)               10100     _________________________________________________________________dense_19 (Dense)             (None, 100)               10100     _________________________________________________________________alpha_dropout (AlphaDropout) (None, 100)               0         _________________________________________________________________dense_20 (Dense)             (None, 10)                1010      =================================================================Total params: 271,410Trainable params: 271,410Non-trainable params: 0_________________________________________________________________</pre></div></div></div></div></div><div class='cell border-box-sizing text_cell rendered'><div class='prompt input_prompt'></div><div class='inner_cell'><div class='text_cell_render border-box-s
…
 hl-ipython3'><pre><span></span><span class='n'>model</span><span class='o'>.</span><span class='n'>summary</span><span class='p'>()</span></pre></div>    </div></div></div><div class='output_wrapper'><div class='output'><div class='output_area'>    <div class='prompt'></div><div class='output_subarea output_stream output_stdout output_text'><pre>Model: &#34;sequential&#34;_________________________________________________________________Layer (type)                 Output Shape              Param #   =================================================================flatten (Flatten)            (None, 784)               0         _________________________________________________________________dense (Dense)                (None, 100)               78500     _________________________________________________________________dense_1 (Dense)              (None, 100)               10100     _________________________________________________________________dense_2 (Dense)              (None, 100)               10100     _________________________________________________________________dense_3 (Dense)              (None, 100)               10100     _________________________________________________________________dense_4 (Dense)              (None, 100)               10100     _________________________________________________________________dense_5 (Dense)              (None, 100)               10100     _________________________________________________________________dense_6 (Dense)              (None, 100)               10100     _________________________________________________________________dense_7 (Dense)              (None, 100)               10100     _________________________________________________________________dense_8 (Dense)              (None, 100)               10100     _________________________________________________________________dense_9 (Dense)              (None, 100)               10100     _________________________________________________________________dense_10 (Dense)             (None, 100)               10100     _________________________________________________________________dense_11 (Dense)             (None, 100)               10100     _________________________________________________________________dense_12 (Dense)             (None, 100)               10100     _________________________________________________________________dense_13 (Dense)             (None, 100)               10100     _________________________________________________________________dense_14 (Dense)             (None, 100)               10100     _________________________________________________________________dense_15 (Dense)             (None, 100)               10100     _________________________________________________________________dense_16 (Dense)             (None, 100)               10100     _________________________________________________________________dense_17 (Dense)             (None, 100)               10100     _________________________________________________________________dense_18 (Dense)             (None, 100)               10100     _________________________________________________________________dense_19 (Dense)             (None, 100)               10100     _________________________________________________________________dense_20 (Dense)             (None, 10)                1010      =================================================================Total params: 271,410Trainable params: 271,410Non-trainable params: 0_________________________________________________________________</pre></div></div></div></div></div><div class='cell border-box-sizing text_cell rendered'><div class='prompt input_prompt'></div><div class='inner_cell'><div class='text_cell_render border-box-s
…
 hl-ipython3'><pre><span></span><span class='n'>model</span><span class='o'>.</span><span class='n'>summary</span><span class='p'>()</span></pre></div>    </div></div></div><div class='output_wrapper'><div class='output'><div class='output_area'>    <div class='prompt'></div><div class='output_subarea output_stream output_stdout output_text'><pre>Model: &#34;sequential&#34;_________________________________________________________________Layer (type)                 Output Shape              Param #   =================================================================flatten (Flatten)            (None, 784)               0         _________________________________________________________________dense (Dense)                (None, 100)               78500     _________________________________________________________________batch_normalization (BatchNo (None, 100)               400       _________________________________________________________________dense_1 (Dense)              (None, 100)               10100     _________________________________________________________________batch_normalization_1 (Batch (None, 100)               400       _________________________________________________________________dense_2 (Dense)              (None, 100)               10100     _________________________________________________________________batch_normalization_2 (Batch (None, 100)               400       _________________________________________________________________dense_3 (Dense)              (None, 100)               10100     _________________________________________________________________batch_normalization_3 (Batch (None, 100)               400       _________________________________________________________________dense_4 (Dense)              (None, 100)               10100     _________________________________________________________________batch_normalization_4 (Batch (None, 100)               400       _________________________________________________________________dense_5 (Dense)              (None, 100)               10100     _________________________________________________________________batch_normalization_5 (Batch (None, 100)               400       _________________________________________________________________dense_6 (Dense)              (None, 100)               10100     _________________________________________________________________batch_normalization_6 (Batch (None, 100)               400       _________________________________________________________________dense_7 (Dense)              (None, 100)               10100     _________________________________________________________________batch_normalization_7 (Batch (None, 100)               400       _________________________________________________________________dense_8 (Dense)              (None, 100)               10100     _________________________________________________________________batch_normalization_8 (Batch (None, 100)               400       _________________________________________________________________dense_9 (Dense)              (None, 100)               10100     _________________________________________________________________batch_normalization_9 (Batch (None, 100)               400       _________________________________________________________________dense_10 (Dense)             (None, 100)               10100     _________________________________________________________________batch_normalization_10 (Batc (None, 100)               400       _________________________________________________________________dense_11 (Dense)             (None, 100)               10100     _________________________________________________________________batch_normalization_11 (Batc (None, 100)               400       _________________________________________________________________dense_12 (Dense)             (None, 100)               10100     _________________________________________________________________batch_normalization_12 (Batc (None, 100)               400       _________________________________________________________________dense_13 (Dense)             (None, 100)               10100     _________________________________________________________________batch_normalization_13 (Batc (None, 100)               400       _________________________________________________________________dense_14 (Dense)             (None, 100)               10100     _________________________________________________________________batch_normalization_14 (Batc (None, 100)               400       _________________________________________________________________dense_15 (Dense)             (None, 100)               10100     _________________________________________________________________batch_normalization_15 (Batc (None, 100)               400       _________________________________________________________________dense_16 (Dense)             (None, 100)               10100     _________________________________________________________________batch_normalization_16 (Batc (None, 100)               400       _________________________________________________________________dense_17 (Dense)             (None, 100)               10100     _________________________________________________________________batch_normalization_17 (Batc (None, 100)               400       _________________________________________________________________dense_18 (Dense)             (None, 100)               10100     _________________________________________________________________batch_normalization_18 (Batc (None, 100)               400       _________________________________________________________________dense_19 (Dense)             (None, 100)               10100     _________________________________________________________________batch_normalization_19 (Batc (None, 100)               400       _________________________________________________________________dense_20 (Dense)             (None, 10)                1010      =================================================================Total params: 279,410Trainable params: 275,410Non-trainable params: 4,000_________________________________________________________________</pre></div></div></div></div></div><div class='cell border-box-sizing text_cell rendered'><div class='prompt input_prompt'></div><div class='inner_cell'><div class='text_cell_render border-b
…
